mymodel.pth (torch, 32856 bytes, 2 tensors)

linear.weight f4 [10, 784]
0.023471223 0.003109264 0.01030266 -0.010220504 0.030902002 0.014610822 -0.005841589 -0.006120456
-0.02602368 0.0014997507 0.033497967 -0.016319614 0.003817014 -0.01826275 -0.015579391 -0.014351154
0.031785045 -0.019184338 0.025800506 -0.024223456 0.02886196 0.00842675 -0.017430043 0.02974089
0.0113617135 0.011696178 0.0107708825 0.028431641 -0.013221781 0.022872472 0.0070098653 -0.0113626635
0.040606264 0.01364451 0.01683003 0.008043403 -0.019269826 -0.0033339374 0.0035388689 0.032142874
0.0013143063 0.023823151 0.03698698 0.042411268 0.032920357 0.024699615 0.020022865 0.009970944
0.03212864 0.0054688007 0.015589043 0.0344502 0.023071876 0.030167472 -0.0013366392 -0.018671935
-0.010049448 0.025704114 0.02042085 0.020237364 -0.00090360304 0.009470151 0.0018943765 0.012195326
0.0013869257 0.0047418424 -0.010443499 -0.035326418 0.014319919 -0.039834358 -0.03673244 -0.048297577
0.013876555 -0.04085077 -0.04066937 0.014093981 -0.035398602 -0.018646486 0.016029838 0.0060155606
0.011759908 0.011746723 0.028918719 0.015082575 -0.0025157374 0.034271438 0.008279508 0.030564183
-0.027156198 0.025127875 0.006979031 -0.0051445113 -0.02870962 0.012617718 0.015707294 0.022814197
-0.040631674 -0.024159215 -0.03369216 -0.0019254496 -0.048267704 -0.004531421 -0.05829564 -0.07587859
-0.045844987 -0.048422206 -0.0018149734 -0.016981382 -0.027693855 -0.01189918 0.0013884109 -0.01688389
0.027274793 -0.02232205 -0.018561004 0.018360533 0.011580097 0.018573333 -0.038771655 -0.019059818
0.0036234267 -0.020273821 -0.006698453 0.014916502 -0.02854374 0.020024074 -0.018083384 -0.010845456
0.006480367 0.019150075 -0.0026391663 -0.01379129 -0.015661014 -0.0614821 0.0063894656 -0.04366623
-0.006927387 -0.013248998 0.026939759 0.010372081 0.028731791 -0.015461375 0.016643161 0.021389944
-0.002597521 -0.036511175 -0.027209094 -0.013630228 -0.030033521 -0.01743111 -0.045235924 -0.014302674
0.007356341 0.048481535 0.039682202 0.068012305 0.014008743 0.023058273 0.03510257 0.0073986235
-0.007642247 0.019382302 -0.022866284 -0.013705747 -0.06755035 -0.0071601053 -0.018326085 0.03241062
0.040799364 0.043384694 -0.022159848 -0.009439444 -0.0027183315 -0.013691199 -0.05102645 -0.033230077
-0.024343979 -0.03539472 -0.031288277 0.013357304 -0.008973861 0.03345806 0.02854961 0.047905363
0.04335977 0.06549582 0.040431004 0.040250074 0.031079344 0.05456912 0.027454367 -0.018679047
-0.06327463 -0.019002864 -0.039749846 -0.028179804 0.03409831 -0.024284467 0.023118574 0.03126748
-0.026975656 -0.027475668 0.01124331 -0.035555318 -0.02131334 0.010282985 -0.036771405 0.0059991307
-0.008501425 0.04108042 -0.00030338866 0.0360417 0.017660348 0.072983764 0.047585525 0.031280603
-0.0040564276 0.00085579435 0.035431203 0.006672092 -0.05736763 -0.027233114 -0.017028056 0.042560793
-0.011204516 -0.005041987 -0.013887202 0.035161003 -0.017925309 -0.052334987 -0.045358106 -0.021977643
-0.030411294 0.013363437 0.025369065 0.0008236601 -0.009391812 0.021248775 0.0300299 0.041612074
0.04514232 0.06906806 0.059493005 0.048634104 0.043336567 0.022396343 -0.0071471436 0.05130647
-0.0028928719 -0.07844491 0.013273686 0.036072407 -0.012213396 0.012337337 0.0417234 0.012970142
00000000: b946 c03c cbc4 4b3b 7dcc 283c e773 27bc
00000010: 3226 fd3c 3b62 6f3c cd6a bfbb 1b8e c8bb
00000020: 9d2f d5bc 4893 c43a 2a35 093d b6b0 85bc
00000030: de26 7a3b c39b 95bc b440 7fbc 1a21 6bbc
00000040: 0931 023d 7928 9dbc 955b d33c 4570 c6bc
00000050: eb6f ec3c 5a10 0a3c 73c9 8ebc 2ba3 f33c
00000060: 7b26 3a3c 53a1 3f3c 5b78 303c 79e9 e83c
00000070: 2ba0 58bc 0d5f bb3c 03b3 e53b 772a 3abc
00000080: c152 263d 398d 5f3c 22df 893c 7ac8 033c
00000090: c1db 9dbc 307e 5abb 5eec 673b 3fa8 033d
000000a0: cd44 ac3a c528 c33c a97f 173d 70b7 2d3d
000000b0: 7fd7 063d d956 ca3c fe06 a43c 2c5d 233c
000000c0: 5299 033d a033 b33b 2f69 7f3c a71b 0d3d
000000d0: 3b01 bd3c c621 f73c 2b32 afba e3f5 98bc
000000e0: 71a6 24bc 6f91 d23c a049 a73c d4c8 a53c
000000f0: c6df 6cba b128 1b3c ba4c f83a e8ce 473c
00000100: 81c9 b53a 7561 9b3b 361b 2bbc 6fb2 10bd
00000110: 189e 6a3c 5a29 23bd c174 16bd aed3 45bd
00000120: 7d5a 633c 2353 27bd ed94 26bd 71ea 663c
00000130: 20fe 10bd 84c0 98bc 0251 833c 2e1e c53b
00000140: a1ac 403c 5475 403c f3e6 ec3c e81c 773c
00000150: 12df 24bb 3560 0c3d c6a6 073c bd61 fa3c
00000160: ad76 debc f9d8 cd3c 5bb0 e43b 4a93 a8bb
00000170: 7030 ebbc 8cba 4e3c 95ac 803c d7e4 ba3c
00000180: 666d 26bd 8ce9 c5bc ca00 0abd 5e5f fcba
00000190: 5bb4 45bd 507c 94bb 69c7 6ebd 3c66 9bbd
000001a0: f4c7 3bbd 5d56 46bd 67e4 edba 8a1c 8bbc
000001b0: 39de e2bc c7f4 42bc 57fb b53a 1550 8abc
000001c0: 636f df3c bbdc b6bc 3f0d 98bc d468 963c
000001d0: 72ba 3d3c 1a27 983c 07cf 1ebd 5623 9cbc
000001e0: 0377 6d3b 4915 a6bc b27e dbbb 5864 743c
000001f0: 90d4 e9bc 8709 a43c 9b23 94bc 24b1 31bc
00000200: 4259 d43b 9ee0 9c3c ddf5 2cbb ddf4 61bc
00000210: 874b 80bc a8d4 7bbd b95e d13b 5cdb 32bd
00000220: 22ff e2bb 5312 59bc c5b0 dc3c a9ef 293c
00000230: ef5e eb3c b551 7dbc 3d57 883c f739 af3c
00000240: 2c3b 2abb be8c 15bd 9be5 debc 5251 5fbc
00000250: dc08 f6bc b0cb 8ebc 4e49 39bd c355 6abc
00000260: 760d f13b 9394 463d ce89 223d 094a 8b3d
00000270: ed84 653c b4e4 bc3c b6c7 0f3d 2770 f23b
00000280: d06b fabb a2c7 9e3c 1352 bbbc 128e 60bc
00000290: d757 8abd 519f eabb 9620 96bc 00c1 043d
000002a0: 3c1d 273d 26b4 313d 9288 b5bc e6a7 1abc
000002b0: 0926 32bb 0d51 60bc 1c01 51bd 431c 08bd
000002c0: 066d c7bc 0efa 10bd 2328 00bd 98d8 5a3c
000002d0: 1a07 13bc 520b 093d dfe0 e93c 6a38 443d
000002e0: 049a 313d ac22 863d fb9a 253d 43dd 243d
000002f0: 1c9a fe3c df83 5f3d fbe7 e03c cd04 99bc
00000300: 2196 81bd e5ab 9bbc bcd0 22bd 55d9 e6bc
00000310: abaa 0b3d 38f0 c6bc 2a63 bd3c 5412 003d
00000320: 0dfc dcbc a714 e1bc dc35 383c 74a2 11bd
00000330: 5099 aebc f779 283c 9d9d 16bd 5b94 c43b
00000340: 9049 0bbc f143 283d 2310 9fb9 76a0 133d
00000350: 6fac 903c 8378 953d 0ae9 423d 1720 003d
00000360: c8eb 84bb 6357 603a 4f20 113d 90a1 da3b
00000370: 52fa 6abd fb17 dfbc 6c7e 8bbc 3a54 2e3d
00000380: 2593 37bc 4137 a5bb 2687 63bc fc04 103d
00000390: 19d8 92bc 365d 56bd 6cc9 39bd 750a b4bc
000003a0: 1b21 f9bc 51f2 5a3c c9d2 cf3c e5ea 573a
000003b0: 1de0 19bc e911 ae3c 4401 f63c 6c71 2a3d
000003c0: 27e7 383d 8e73 8d3d f0ae 733d 8e34 473d
000003d0: af81 313d 8978 b73c 9632 eabb bc26 523d
000003e0: 5696 3dbb baa7 a0bd e079 593c a9c0 133d
000003f0: b21a 48bc 8b22 4a3c 28e6 2a3d b880 543c

linear.bias f4 [10]
-0.01105318 -0.02593777 -0.0059162094 -0.024919976 0.0074045616 0.0020789928 0.022737611 0.0016590923
-0.03877909 -0.02929927
00000000: 6618 35bc 727b d4bc c3dc c1bb fa24 ccbc
00000010: f7a1 f23b b63f 083b 3a44 ba3c e675 d93a
00000020: d3d6 1ebd 0605 f0bc
