weights.pth (torch, 32856 bytes, 2 tensors)

linear.weight f4 [10, 784]
0.039109692 0.021064846 -0.023393473 0.007801761 0.03709632 0.0048588715 0.012094951 0.016048959
-0.0054854876 -0.016824087 -0.0070861364 -0.003019443 0.03439466 -0.022755066 0.0110936975 -0.007353894
0.0024989187 0.0031258904 -0.0075549707 0.014539727 0.014739326 -0.014210476 0.02824228 0.038516022
-0.008493702 0.0135782 -0.006925748 0.030780198 0.0035294804 -0.025544615 0.014609418 0.035894543
0.006437745 -0.0028489763 0.0053048157 0.026468651 0.03677172 -0.0029056773 0.024598194 0.027131047
0.040730543 0.032779247 -0.023874521 -0.022445077 -0.02062618 0.029979775 -0.012228318 0.025705129
0.0007187124 -0.008543072 0.033142205 -0.0006031323 -0.012975494 0.0008251833 -0.01641587 -0.028089816
4.130223e-05 0.004287964 -0.014058245 0.038077865 -0.0016557998 -0.0028350824 0.03339472 0.00867464
-0.0044575534 0.009407983 -0.033479217 0.032193206 0.0034667656 0.0021327923 -0.042406324 0.009196318
-0.044335607 -0.025686318 -0.03275244 -0.024619093 0.004676074 -0.034028977 -0.031148572 0.013425807
0.01775215 0.006775791 -0.007269539 -0.0036916626 0.0013661995 -0.0009425932 -0.015797783 0.03345007
0.012863903 -0.021826863 -0.0075295093 -0.028513134 -0.022623077 0.015953423 -0.0041178917 0.0007215628
-0.028359132 -0.033376712 -0.021244189 -0.04555785 -0.052249763 -0.0062405667 -0.047488194 -0.027313013
-0.01157935 -0.012885888 -0.029265877 -0.011293142 0.00028466302 0.007284252 0.007417563 -0.021623043
-0.013333633 0.032324847 0.0074212486 -0.009872782 0.028613424 -0.013974911 -0.022207081 0.015185934
-0.04003614 -0.030866493 0.0044428916 -0.024418656 -0.03813235 0.022248693 0.012006235 -0.008973776
-0.008154035 0.005655182 0.0011271969 -0.030433679 -0.024635442 -0.0075595956 -0.051330965 -0.051092837
-0.0035208238 0.007027356 -0.029109322 -0.026941486 0.03597322 0.041941382 -0.009440382 0.041541085
0.024444176 0.016818775 -0.032400306 -0.032145355 -0.0051211594 -0.010061271 -0.042216588 0.009683893
0.035310067 0.011526831 0.012470848 0.016464207 0.028355857 0.036169134 0.024150817 -0.0051110056
0.022526257 0.024042193 0.002093722 -0.022074215 -0.016591819 -0.023269055 -0.026091434 -0.015355464
0.022469452 0.014110167 0.010623127 -0.016900927 -0.021700343 -0.028641818 -0.026081512 -0.033525173
-0.025189193 -0.04074078 -0.020057471 -0.030213796 0.02457343 -0.00031468907 0.042837538 0.0077701854
0.027635692 0.08079394 0.03462766 0.020753048 0.032999773 -0.013466419 -0.00071079296 -0.03456398
-0.049424727 -0.03503373 -0.029031657 -0.028087731 0.006683636 0.03599985 -0.010686668 0.0077274013
0.012736448 -0.050419025 0.008669534 0.0040430143 -0.04773415 0.009888248 0.008405979 0.024051115
0.035261687 0.018572662 0.03427268 0.0060755154 0.04129148 0.07744776 0.02677629 0.038243376
0.0015581753 0.031138994 0.030456979 0.019266022 -0.048398152 -0.025813332 0.013855046 0.011424853
-0.02654491 0.031514928 -0.017232735 0.018582575 -0.041749664 -0.011329336 -0.026786398 -0.05245364
-0.004218367 -0.02240529 -0.021981768 -0.012332271 0.028136214 0.024433369 0.02336717 0.03854624
0.060551595 0.061522026 0.07496278 0.052399326 0.005645845 0.013695324 0.045499112 0.051934667
-0.05576454 -0.062270854 -0.024524018 0.03904554 0.04134689 -0.009817766 -0.005086879 0.002671366
00000000: 7c31 203d 2f90 ac3c aba3 bfbc eaa5 ff3b
00000010: 50f2 173d 2b37 9f3b e729 463c 1b79 833c
00000020: 9bbf b3bb abd2 89bc d232 e8bb d9e1 45bb
00000030: 6ae1 0c3d d568 babc 57c2 353c eff8 f0bb
00000040: e6c4 233b bddb 4c3b b08f f7bb 0938 6e3c
00000050: 377d 713c 0ed3 68bc 5b5c e73c fac2 1d3d
00000060: 2b29 0bbc 1977 5e3c 63f1 e2bb c126 fc3c
00000070: db4e 673b f142 d1bc 575c 6f3c 2806 133d
00000080: b8f3 d23b e4b5 3abb 05d4 ad3b c9d4 d83c
00000090: f19d 163d 2d6d 3ebb 2782 c93c ee41 de3c
000000a0: 12d5 263d 8843 063d 8094 c3bc bdde b7bc
000000b0: 3cf8 a8bc 2598 f53c 4859 48bc 9093 d23c
000000c0: f967 3c3a 3ef8 0bbc 1fc0 073d 861b 1eba
000000d0: 2b97 54bc 1d51 583a 937a 86bc 9d1c e6bc
000000e0: ef3b 2d38 0d82 8c3b 8e54 66bc 89f7 1b3d
000000f0: 6c07 d9ba cacc 39bb e7c8 083d 1420 0e3c
00000100: ab10 92bb f123 1a3c 8121 09bd 06dd 033d
00000110: ad32 633b 51c6 0b3b 41b2 2dbd 27ac 163c
00000120: 4199 35bd 1d6c d2bc 6c27 06bd fbad c9bc
00000130: c039 993b f861 0bbd 4a2b ffbc eaf7 5b3c
00000140: f56c 913c 7407 de3b 5035 eebb d2ef 71bb
00000150: 0c12 b33a 5c18 77ba 5a6a 81bc f102 093d
00000160: 1fc3 523c 40ce b2bc 1aba f6bb 6094 e9bc
00000170: 0854 b9bc c1b0 823c 61ef 86bb 4327 3d3a
00000180: 6951 e8bc 05b6 08bd 4b08 aebc de9a 3abd
00000190: d903 56bd ab7d ccbb fb82 42bd 8abf dfbc
000001a0: 50b7 3dbc 551f 53bc febe efbc df06 39bc
000001b0: d33e 9539 bcb0 ee3b 070f f33b cf22 b1bc
000001c0: 4f75 5abc 0f67 043d f22d f33b 73c1 21bc
000001d0: b366 ea3c 06f7 64bc a0eb b5bc 6cce 783c
000001e0: effc 23bd badb fcbc ad95 913b a209 c8bc
000001f0: ab30 1cbd e442 b63c cdb5 443c bf06 13bc
00000200: 8098 05bc 1b4f b93b 74be 933a 0d50 f9bc
00000210: 44d0 c9bc 7cb6 f7bb 6b40 52bd b946 51bd
00000220: 9fbd 66bb bc45 e63b ac76 eebc 64b4 dcbc
00000230: a858 133d baca 2b3d d5ab 1abc fc26 2a3d
00000240: 273f c83c 87c7 893c 2fb6 04bd d9aa 03bd
00000250: 66cf a7bb 07d8 24bc 4deb 2cbd 31a9 1e3c
00000260: 4aa1 103d 09db 3c3c 8752 4c3c f2df 863c
00000270: 8b4a e83c 1626 143d efd7 c53c 397a a7bb
00000280: fc88 b83c 22f4 c43c d436 093b fcd4 b4bc
00000290: 91eb 87bc bf9e bebc b4bd d5bc 7c95 7bbc
000002a0: db11 b83c 542e 673c a00c 2e3c d073 8abc
000002b0: ebc4 b1bc 3fa2 eabc e5a8 d5bc b151 09bd
000002c0: 9159 cebc cedf 26bd 914f a4bc ec82 f7bc
000002d0: 384e c93c dafc a4b9 6a76 2f3d 0a9d fe3b
000002e0: 3f64 e23c 4b77 a53d bcd5 0d3d 4c02 aa3c
000002f0: c52a 073d 41a2 5cbc 8254 3aba f692 0dbd
00000300: 9571 4abd 877f 0fbd ccd3 edbc 3e18 e6bc
00000310: 6702 db3b 9474 133d 2217 2fbc 2436 fd3b
00000320: 89ac 503c 2e84 4ebd a90a 0e3c 437b 843b
00000330: e284 43bd 5102 223c 3bb9 093c d806 c53c
00000340: 8f6e 103d b225 983c 8261 0c3d 1e15 c73b
00000350: 4121 293d ee9c 9e3d f359 db3c 16a5 1c3d
00000360: b03b cc3a 3417 ff3c ea80 f93c c7d3 9d3c
00000370: 243d 46bd 7b76 d3bc 4600 633c 4e2f 3b3c
00000380: b674 d9bc cc15 013d aa2b 8dbc 7c3a 983c
00000390: b201 2bbd ae9e 39bc 266f dbbc a1d9 56bd
000003a0: 3a3a 8abb 4c8b b7bc 1c13 b4bc 4b0d 4abc
000003b0: eb7d e63c 7d28 c83c 826c bf3c aae2 1d3d
000003c0: f304 783d 85fe 7b3d 1686 993d ada0 563d
000003d0: c800 b93b 5a62 603c 475d 3a3d 72b9 543d
000003e0: 5c69 64bd b90f 7fbd 98e6 c8bc 37ee 1f3d
000003f0: 5b5b 293d b2da 20bc d5af a6bb 1612 2f3b

linear.bias f4 [10]
0.0071944175 -0.010501495 0.004637014 0.0063462807 0.013021022 -0.009611867 -0.035360172 -0.027672382
0.007367145 -0.023908416
00000000: 26bf eb3b 760e 2cbc 18f2 973b 76f4 cf3b
00000010: 2056 553c 187b 1dbc d4d5 10bd 31b1 e2bc
00000020: 1768 f13b 95db c3bc
